D:\software\Anaconda\Anaconda\envs\pytorch\python.exe D:/Code/yolov8/detection_train.py

                   from  n    params  module                                       arguments
  0                  -1  1       928  ultralytics.nn.modules.Conv                  [3, 32, 3, 2]
  1                  -1  1     18560  ultralytics.nn.modules.Conv                  [32, 64, 3, 2]
  2                  -1  1     44726  ultralytics.nn.modules.C2f_DCN               [64, 64, 1, True]
  3                  -1  1     73984  ultralytics.nn.modules.Conv                  [64, 128, 3, 2]
  4                  -1  2    260204  ultralytics.nn.modules.C2f_DCN               [128, 128, 2, True]
  5                  -1  1    295424  ultralytics.nn.modules.Conv                  [128, 256, 3, 2]
  6                  -1  2    913516  ultralytics.nn.modules.C2f_DCN               [256, 256, 2, True]
  7                  -1  1   1180672  ultralytics.nn.modules.Conv                  [256, 512, 3, 2]
  8                  -1  1   1963062  ultralytics.nn.modules.C2f_DCN               [512, 512, 1, True]
  9                  -1  1    656896  ultralytics.nn.modules.SPPF                  [512, 512, 5]
 10                  -1  1         0  torch.nn.modules.upsampling.Upsample         [None, 2, 'nearest']
 11             [-1, 6]  1         0  ultralytics.nn.modules.Concat                [1]
 12                  -1  1    591360  ultralytics.nn.modules.C2f                   [768, 256, 1]
 13                  -1  1         0  ultralytics.nn.SimAM.SimAM                   [0.0001]
 14                  -1  1         0  torch.nn.modules.upsampling.Upsample         [None, 2, 'nearest']
 15             [-1, 4]  1         0  ultralytics.nn.modules.Concat                [1]
 16                  -1  1    148224  ultralytics.nn.modules.C2f                   [384, 128, 1]
 17                  -1  1         0  ultralytics.nn.SimAM.SimAM                   [0.0001]
 18                  -1  1    147712  ultralytics.nn.modules.Conv                  [128, 128, 3, 2]
 19            [-1, 12]  1         0  ultralytics.nn.modules.Concat                [1]
 20                  -1  1    493056  ultralytics.nn.modules.C2f                   [384, 256, 1]
 21                  -1  1         0  ultralytics.nn.SimAM.SimAM                   [0.0001]
 22                  -1  1    590336  ultralytics.nn.modules.Conv                  [256, 256, 3, 2]
 23             [-1, 9]  1         0  ultralytics.nn.modules.Concat                [1]
 24                  -1  1   1969152  ultralytics.nn.modules.C2f                   [768, 512, 1]
 25                  -1  1         0  ultralytics.nn.SimAM.SimAM                   [0.0001]
 26        [16, 20, 24]  1   2117983  ultralytics.nn.modules.Detect                [5, [128, 256, 512]]
YOLOv8s_simAM_DCN summary: 233 layers, 11465795 parameters, 11465779 gradients, 25.1 GFLOPs

Ultralytics YOLOv8.0.39  Python-3.8.0 torch-1.11.0 CUDA:0 (NVIDIA GeForce RTX 3060 Laptop GPU, 6144MiB)
yolo\engine\trainer: task=detect, mode=train, model=weights/yolov8n.pt, data=coco128.yaml, epochs=100, patience=50, batch=2, imgsz=640, save=True, save_period=-1, cache=False, device=
…
